…
2020-01-15 11:01:09.716738: I tensorflow/compiler/xla/service/service.cc:168] XLA service 0x7fe794a9b450 executing computations on platform Host. Devices:
2020-01-15 11:01:09.716752: I tensorflow/compiler/xla/service/service.cc:175]   StreamExecutor device (0): Host, Default Version
Model: "model"
_________________________________________________________________
Layer (type)                 Output Shape              Param #
=================================================================
input_1 (InputLayer)         [(None, 512)]             0
_________________________________________________________________
embedding (Embedding)        (None, 512, 300)          18606900
_________________________________________________________________
conv1d (Conv1D)              (None, 508, 128)          192128
_________________________________________________________________
max_pooling1d (MaxPooling1D) (None, 101, 128)          0
_________________________________________________________________
conv1d_1 (Conv1D)            (None, 97, 128)           82048
_________________________________________________________________
max_pooling1d_1 (MaxPooling1 (None, 19, 128)           0
_________________________________________________________________
conv1d_2 (Conv1D)            (None, 15, 128)           82048
_________________________________________________________________
global_max_pooling1d (Global (None, 128)               0
_________________________________________________________________
dense (Dense)                (None, 64)                8256
_________________________________________________________________
dropout (Dropout)            (None, 64)                0
_________________________________________________________________
dense_1 (Dense)              (None, 1)                 65
=================================================================
Total params: 18,971,445
Trainable params: 18,971,445
Non-trainable params: 0
_________________________________________________________________
Train on 57732 samples, validate on 14433 samples
Epoch 1/300
   64/57732 [..............................] - ETA: 20:33 - loss: 0.7031 - accuracy: 0.64062020-01-15 11:01:17.641143: I tensorflow/core/profiler/lib/profiler_session.cc:184] Profiler session started.
…
